…
[[36m02-29 22:54:23[0m][[34mflashy.solver[0m][[32mINFO[0m] - [1mTest Summary | Epoch 1 | wer=40.772% | wer_vocab=16.557% | duration=576.2904[0m
[[36m02-29 22:54:23[0m][[34mflashy.solver[0m][[32mINFO[0m] - [1mTrain Summary | Epoch 2 | loss=1.4782 | duration=3063.2840[0m
[[36m02-29 22:54:23[0m][[34mflashy.solver[0m][[32mINFO[0m] - [1mValid Summary | Epoch 2 | loss=1.4293 | duration=483.4031[0m
[[36m02-29 22:54:23[0m][[34mflashy.solver[0m][[32mINFO[0m] - [1mTest Summary | Epoch 2 | wer=37.098% | wer_vocab=14.321% | duration=573.9718[0m
264
CNNTransformer(
  (merger): ChannelMerger(
    (embedding): FourierEmb()
  )
  (initial_linear): Sequential(
    (0): Conv1d(270, 270, kernel_size=(1,), stride=(1,))
  )
  (subject_layers): SubjectLayers(270, 270, 27)
  (final): Sequential(
    (0): Conv1d(320, 640, kernel_size=(1,), stride=(1,))
    (1): GELU(approximate='none')
    (2): ConvTranspose1d(640, 264, kernel_size=(1,), stride=(1,))
  )
  (encoders): ModuleDict(
    (meg): ConvSequence(
      (sequence): ModuleList(
        (0): Sequential(
          (0): Conv1d(270, 320, kernel_size=(3,), stride=(1,), padding=(1,))
          (1): BatchNorm1d(320, eps=1e-05, momentum=0.1, affine=True, track_running_stats=True)
          (2): GELU(approximate='none')
          (3): Dropout(p=0.2, inplace=False)
        )
        (1): Sequential(
          (0): Conv1d(320, 320, kernel_size=(3,), stride=(1,), padding=(2,), dilation=(2,))
          (1): BatchNorm1d(320, eps=1e-05, momentum=0.1, affine=True, track_running_stats=True)
          (2): GELU(approximate='none')
          (3): Dropout(p=0.2, inplace=False)
        )
        (2): Sequential(
          (0): Conv1d(320, 320, kernel_size=(3,), stride=(1,), padding=(4,), dilation=(4,))
          (1): BatchNorm1d(320, eps=1e-05, momentum=0.1, affine=True, track_running_stats=True)
          (2): GELU(approximate='none')
          (3): Dropout(p=0.2, inplace=False)
        )
        (3): Sequential(
          (0): Conv1d(320, 320, kernel_size=(3,), stride=(1,), padding=(8,), dilation=(8,))
          (1): BatchNorm1d(320, eps=1e-05, momentum=0.1, affine=True, track_running_stats=True)
          (2): GELU(approximate='none')
          (3): Dropout(p=0.2, inplace=False)
        )
      )
      (glus): ModuleList(
        (0): None
        (1): Sequential(
          (0): Conv1d(320, 640, kernel_size=(3,), stride=(1,), padding=(1,))
          (1): GLU(dim=1)
        )
        (2): None
        (3): Sequential(
          (0): Conv1d(320, 640, kernel_size=(3,), stride=(1,), padding=(1,))
          (1): GLU(dim=1)
        )
      )
    )
  )
  (positional_embedding): PositionalEncoding(
    (dropout): Dropout(p=0.0, inplace=False)
  )
  (layers): Sequential(
    (0): TransformerEncoderLayer(
      (self_attn): MultiheadAttention(
        (out_proj): NonDynamicallyQuantizableLinear(in_features=264, out_features=264, bias=True)
      )
      (linear1): Linear(in_features=264, out_features=2048, bias=True)
      (dropout): Dropout(p=0.1, inplace=False)
      (linear2): Linear(in_features=2048, out_features=264, bias=True)
      (norm1): LayerNorm((264,), eps=1e-05, elementwise_affine=True)
      (norm2): LayerNorm((264,), eps=1e-05, elementwise_affine=True)
      (dropout1): Dropout(p=0.1, inplace=False)
      (dropout2): Dropout(p=0.1, inplace=False)
    )
  )
  (last): Linear(in_features=264, out_features=1024, bias=True)
)
None
None
[[36m02-29 23:02:53[0m][[34mflashy.solver[0m][[32mINFO[0m] - Train | Epoch 4 | 240/1200 | 0.48 it/sec | loss 1.3211[0m
[[36m02-29 23:11:15[0m][[34mflashy.solver[0m][[32mINFO[0m] - Train | Epoch 4 | 480/1200 | 0.48 it/sec | loss 1.3078[0m
[[36m02-29 23:19:37[0m][[34mflashy.solver[0m][[32mINFO[0m] - Train | Epoch 4 | 720/1200 | 0.48 it/sec | loss 1.3002[0m
…
