…
wandb: Run data is saved locally in /home/zubrikhina/brainmagick_MICCAI/outputs/xps/08fd38cc/wandb/run-20240228_192446-08fd38cc
wandb: Run `wandb offline` to turn off syncing.
wandb: Syncing run 08fd38cc
wandb: ⭐️ View project at https://wandb.ai/gnn-neuro/brainmagick
wandb: 🚀 View run at https://wandb.ai/gnn-neuro/brainmagick/runs/08fd38cc
[[36m02-28 19:24:53[0m][[34mbm.solver[0m][[32mINFO[0m] - Scaler cache file /home/zubrikhina/brainmagick_MICCAI/cache/scaler/e7138f34c964e59b/bf21a9e8fbc5a384.pkl[0m
264
CNNTransformer(
  (merger): ChannelMerger(
    (embedding): FourierEmb()
  )
  (initial_linear): Sequential(
    (0): Conv1d(270, 270, kernel_size=(1,), stride=(1,))
  )
  (subject_layers): SubjectLayers(270, 270, 27)
  (final): Sequential(
    (0): Conv1d(320, 640, kernel_size=(1,), stride=(1,))
    (1): GELU(approximate='none')
    (2): ConvTranspose1d(640, 264, kernel_size=(1,), stride=(1,))
  )
  (encoders): ModuleDict(
    (meg): ConvSequence(
      (sequence): ModuleList(
        (0): Sequential(
          (0): Conv1d(270, 320, kernel_size=(3,), stride=(1,), padding=(1,))
          (1): BatchNorm1d(320, eps=1e-05, momentum=0.1, affine=True, track_running_stats=True)
          (2): GELU(approximate='none')
        )
        (1): Sequential(
          (0): Conv1d(320, 320, kernel_size=(3,), stride=(1,), padding=(2,), dilation=(2,))
          (1): BatchNorm1d(320, eps=1e-05, momentum=0.1, affine=True, track_running_stats=True)
          (2): GELU(approximate='none')
        )
        (2): Sequential(
          (0): Conv1d(320, 320, kernel_size=(3,), stride=(1,), padding=(4,), dilation=(4,))
          (1): BatchNorm1d(320, eps=1e-05, momentum=0.1, affine=True, track_running_stats=True)
          (2): GELU(approximate='none')
        )
        (3): Sequential(
          (0): Conv1d(320, 320, kernel_size=(3,), stride=(1,), padding=(8,), dilation=(8,))
          (1): BatchNorm1d(320, eps=1e-05, momentum=0.1, affine=True, track_running_stats=True)
          (2): GELU(approximate='none')
        )
      )
      (glus): ModuleList(
        (0): None
        (1): Sequential(
          (0): Conv1d(320, 640, kernel_size=(3,), stride=(1,), padding=(1,))
          (1): GLU(dim=1)
        )
        (2): None
        (3): Sequential(
          (0): Conv1d(320, 640, kernel_size=(3,), stride=(1,), padding=(1,))
          (1): GLU(dim=1)
        )
      )
    )
  )
  (positional_embedding): PositionalEncoding(
    (dropout): Dropout(p=0.0, inplace=False)
  )
  (layers): Sequential(
    (0): TransformerEncoderLayer(
      (self_attn): MultiheadAttention(
        (out_proj): NonDynamicallyQuantizableLinear(in_features=264, out_features=264, bias=True)
      )
      (linear1): Linear(in_features=264, out_features=2048, bias=True)
      (dropout): Dropout(p=0.1, inplace=False)
      (linear2): Linear(in_features=2048, out_features=264, bias=True)
      (norm1): LayerNorm((264,), eps=1e-05, elementwise_affine=True)
      (norm2): LayerNorm((264,), eps=1e-05, elementwise_affine=True)
      (dropout1): Dropout(p=0.1, inplace=False)
      (dropout2): Dropout(p=0.1, inplace=False)
    )
  )
  (last): Linear(in_features=264, out_features=32, bias=True)
)
ConvWave
0
ConvWave(
  (layers_block): ModuleList(
    (0): Conv1d(1024, 512, kernel_size=(3,), stride=(1,), padding=(1,))
    (1): BatchNorm1d(512, eps=1e-05, momentum=0.1, affine=True, track_running_stats=True)
    (2): GELU(approximate='none')
    (3): Dropout(p=0.6, inplace=False)
  )
  (first_layer): Conv1d(512, 32, kernel_size=(3,), stride=(1,), padding=(1,))
  (dropout): Dropout(p=0.3, inplace=False)
)
None
None
[[36m02-28 19:37:24[0m][[34mflashy.solver[0m][[32mINFO[0m] - Train | Epoch 1 | 240/1200 | 0.32 it/sec | loss 5.5380[0m
[[36m02-28 19:48:47[0m][[34mflashy.solver[0m][[32mINFO[0m] - Train | Epoch 1 | 480/1200 | 0.34 it/sec | loss 4.3217[0m
[[36m02-28 19:59:02[0m][[34mflashy.solver[0m][[32mINFO[0m] - Train | Epoch 1 | 720/1200 | 0.35 it/sec | loss 3.6913[0m
…
